…
100%|███████████████████████████████████████████████████████████████████████████████████████████████████████████████████████████████████████████████| 6622/6622 [01:13<00:00, 90.41it/s]
2023-09-18 13:29:17,377 - root - INFO - Preprocessing Internal_301_DB_layer3output dataset for validation split.
0it [00:00, ?it/s]
2023-09-18 13:29:17,382 - root - INFO - Concatenating train set
2023-09-18 13:29:38,271 - root - INFO - Concatenating test set
2023-09-18 13:29:42,660 - root - INFO - Concatenating validation set
2023-09-18 13:29:55,774 - root - INFO - CustomModel(
  (backbone): IsotropicBackBone(
    (backbone): Sequential(
      (0): Sequential(
        (0): Grapher(
          (fc1): Sequential(
            (0): Conv2d(1024, 1024, kernel_size=(1, 1), stride=(1, 1))
            (1): BatchNorm2d(1024, eps=1e-05, momentum=0.1, affine=True, track_running_stats=True)
          )
          (graph_conv): DyGraphConv2d(
            (gconv): EdgeConv2d(
              (nn): BasicConv(
                (0): Conv2d(2048, 2048, kernel_size=(1, 1), stride=(1, 1), groups=4)
                (1): BatchNorm2d(2048, eps=1e-05, momentum=0.1, affine=True, track_running_stats=True)
                (2): GELU(approximate='none')
              )
            )
            (dilated_knn_graph): DenseDilatedKnnGraph(
              (_dilated): DenseDilated()
            )
          )
          (fc2): Sequential(
            (0): Conv2d(2048, 1024, kernel_size=(1, 1), stride=(1, 1))
            (1): BatchNorm2d(1024, eps=1e-05, momentum=0.1, affine=True, track_running_stats=True)
          )
          (drop_path): Identity()
        )
        (1): AttentionBlock(
          (key): Linear(in_features=1024, out_features=1024, bias=True)
          (value): Linear(in_features=1024, out_features=1024, bias=True)
          (query): Linear(in_features=1024, out_features=1024, bias=True)
          (attention): MultiheadAttention(
            (out_proj): NonDynamicallyQuantizableLinear(in_features=1024, out_features=1024, bias=True)
          )
        )
        (2): FFN(
          (fc1): Sequential(
            (0): Conv2d(1024, 2048, kernel_size=(1, 1), stride=(1, 1))
            (1): BatchNorm2d(2048, eps=1e-05, momentum=0.1, affine=True, track_running_stats=True)
          )
          (act): GELU(approximate='none')
          (fc2): Sequential(
            (0): Conv2d(2048, 1024, kernel_size=(1, 1), stride=(1, 1))
            (1): BatchNorm2d(1024, eps=1e-05, momentum=0.1, affine=True, track_running_stats=True)
          )
          (drop_path): Identity()
        )
      )
      (1): Sequential(
        (0): Grapher(
          (fc1): Sequential(
            (0): Conv2d(1024, 1024, kernel_size=(1, 1), stride=(1, 1))
            (1): BatchNorm2d(1024, eps=1e-05, momentum=0.1, affine=True, track_running_stats=True)
          )
          (graph_conv): DyGraphConv2d(
            (gconv): EdgeConv2d(
              (nn): BasicConv(
                (0): Conv2d(2048, 2048, kernel_size=(1, 1), stride=(1, 1), groups=4)
                (1): BatchNorm2d(2048, eps=1e-05, momentum=0.1, affine=True, track_running_stats=True)
                (2): GELU(approximate='none')
              )
            )
            (dilated_knn_graph): DenseDilatedKnnGraph(
              (_dilated): DenseDilated()
            )
          )
          (fc2): Sequential(
            (0): Conv2d(2048, 1024, kernel_size=(1, 1), stride=(1, 1))
            (1): BatchNorm2d(1024, eps=1e-05, momentum=0.1, affine=True, track_running_stats=True)
          )
          (drop_path): Identity()
        )
        (1): AttentionBlock(
          (key): Linear(in_features=1024, out_features=1024, bias=True)
          (value): Linear(in_features=1024, out_features=1024, bias=True)
          (query): Linear(in_features=1024, out_features=1024, bias=True)
          (attention): MultiheadAttention(
            (out_proj): NonDynamicallyQuantizableLinear(in_features=1024, out_features=1024, bias=True)
          )
        )
        (2): FFN(
          (fc1): Sequential(
            (0): Conv2d(1024, 2048, kernel_size=(1, 1), stride=(1, 1))
            (1): BatchNorm2d(2048, eps=1e-05, momentum=0.1, affine=True, track_running_stats=True)
          )
          (act): GELU(approximate='none')
          (fc2): Sequential(
            (0): Conv2d(2048, 1024, kernel_size=(1, 1), stride=(1, 1))
            (1): BatchNorm2d(1024, eps=1e-05, momentum=0.1, affine=True, track_running_stats=True)
          )
          (drop_path): Identity()
        )
      )
      (2): Sequential(
        (0): Grapher(
          (fc1): Sequential(
            (0): Conv2d(1024, 1024, kernel_size=(1, 1), stride=(1, 1))
            (1): BatchNorm2d(1024, eps=1e-05, momentum=0.1, affine=True, track_running_stats=True)
          )
          (graph_conv): DyGraphConv2d(
            (gconv): EdgeConv2d(
              (nn): BasicConv(
                (0): Conv2d(2048, 2048, kernel_size=(1, 1), stride=(1, 1), groups=4)
                (1): BatchNorm2d(2048, eps=1e-05, momentum=0.1, affine=True, track_running_stats=True)
                (2): GELU(approximate='none')
              )
            )
            (dilated_knn_graph): DenseDilatedKnnGraph(
              (_dilated): DenseDilated()
            )
          )
          (fc2): Sequential(
            (0): Conv2d(2048, 1024, kernel_size=(1, 1), stride=(1, 1))
            (1): BatchNorm2d(1024, eps=1e-05, momentum=0.1, affine=True, track_running_stats=True)
          )
          (drop_path): Identity()
        )
        (1): AttentionBlock(
          (key): Linear(in_features=1024, out_features=1024, bias=True)
          (value): Linear(in_features=1024, out_features=1024, bias=True)
          (query): Linear(in_features=1024, out_features=1024, bias=True)
          (attention): MultiheadAttention(
            (out_proj): NonDynamicallyQuantizableLinear(in_features=1024, out_features=1024, bias=True)
          )
        )
        (2): FFN(
          (fc1): Sequential(
            (0): Conv2d(1024, 2048, kernel_size=(1, 1), stride=(1, 1))
            (1): BatchNorm2d(2048, eps=1e-05, momentum=0.1, affine=True, track_running_stats=True)
          )
          (act): GELU(approximate='none')
          (fc2): Sequential(
            (0): Conv2d(2048, 1024, kernel_size=(1, 1), stride=(1, 1))
            (1): BatchNorm2d(1024, eps=1e-05, momentum=0.1, affine=True, track_running_stats=True)
          )
          (drop_path): Identity()
        )
      )
      (3): Sequential(
        (0): Grapher(
          (fc1): Sequential(
            (0): Conv2d(1024, 1024, kernel_size=(1, 1), stride=(1, 1))
            (1): BatchNorm2d(1024, eps=1e-05, momentum=0.1, affine=True, track_running_stats=True)
          )
          (graph_conv): DyGraphConv2d(
            (gconv): EdgeConv2d(
              (nn): BasicConv(
                (0): Conv2d(2048, 2048, kernel_size=(1, 1), stride=(1, 1), groups=4)
                (1): BatchNorm2d(2048, eps=1e-05, momentum=0.1, affine=True, track_running_stats=True)
                (2): GELU(approximate='none')
              )
            )
            (dilated_knn_graph): DenseDilatedKnnGraph(
              (_dilated): DenseDilated()
            )
          )
          (fc2): Sequential(
            (0): Conv2d(2048, 1024, kernel_size=(1, 1), stride=(1, 1))
            (1): BatchNorm2d(1024, eps=1e-05, momentum=0.1, affine=True, track_running_stats=True)
          )
          (drop_path): Identity()
        )
        (1): AttentionBlock(
          (key): Linear(in_features=1024, out_features=1024, bias=True)
          (value): Linear(in_features=1024, out_features=1024, bias=True)
          (query): Linear(in_features=1024, out_features=1024, bias=True)
          (attention): MultiheadAttention(
            (out_proj): NonDynamicallyQuantizableLinear(in_features=1024, out_features=1024, bias=True)
          )
        )
        (2): FFN(
          (fc1): Sequential(
            (0): Conv2d(1024, 2048, kernel_size=(1, 1), stride=(1, 1))
            (1): BatchNorm2d(2048, eps=1e-05, momentum=0.1, affine=True, track_running_stats=True)
          )
          (act): GELU(approximate='none')
          (fc2): Sequential(
            (0): Conv2d(2048, 1024, kernel_size=(1, 1), stride=(1, 1))
            (1): BatchNorm2d(1024, eps=1e-05, momentum=0.1, affine=True, track_running_stats=True)
          )
          (drop_path): Identity()
        )
      )
      (4): Sequential(
        (0): Grapher(
          (fc1): Sequential(
            (0): Conv2d(1024, 1024, kernel_size=(1, 1), stride=(1, 1))
            (1): BatchNorm2d(1024, eps=1e-05, momentum=0.1, affine=True, track_running_stats=True)
          )
          (graph_conv): DyGraphConv2d(
            (gconv): EdgeConv2d(
              (nn): BasicConv(
                (0): Conv2d(2048, 2048, kernel_size=(1, 1), stride=(1, 1), groups=4)
                (1): BatchNorm2d(2048, eps=1e-05, momentum=0.1, affine=True, track_running_stats=True)
                (2): GELU(approximate='none')
              )
            )
            (dilated_knn_graph): DenseDilatedKnnGraph(
              (_dilated): DenseDilated()
            )
          )
          (fc2): Sequential(
            (0): Conv2d(2048, 1024, kernel_size=(1, 1), stride=(1, 1))
            (1): BatchNorm2d(1024, eps=1e-05, momentum=0.1, affine=True, track_running_stats=True)
          )
          (drop_path): Identity()
        )
        (1): AttentionBlock(
          (key): Linear(in_features=1024, out_features=1024, bias=True)
          (value): Linear(in_features=1024, out_features=1024, bias=True)
          (query): Linear(in_features=1024, out_features=1024, bias=True)
          (attention): MultiheadAttention(
            (out_proj): NonDynamicallyQuantizableLinear(in_features=1024, out_features=1024, bias=True)
          )
        )
        (2): FFN(
          (fc1): Sequential(
            (0): Conv2d(1024, 2048, kernel_size=(1, 1), stride=(1, 1))
            (1): BatchNorm2d(2048, eps=1e-05, momentum=0.1, affine=True, track_running_stats=True)
          )
          (act): GELU(approximate='none')
          (fc2): Sequential(
            (0): Conv2d(2048, 1024, kernel_size=(1, 1), stride=(1, 1))
            (1): BatchNorm2d(1024, eps=1e-05, momentum=0.1, affine=True, track_running_stats=True)
          )
          (drop_path): Identity()
        )
      )
      (5): Sequential(
        (0): Grapher(
          (fc1): Sequential(
            (0): Conv2d(1024, 1024, kernel_size=(1, 1), stride=(1, 1))
            (1): BatchNorm2d(1024, eps=1e-05, momentum=0.1, affine=True, track_running_stats=True)
          )
          (graph_conv): DyGraphConv2d(
            (gconv): EdgeConv2d(
              (nn): BasicConv(
                (0): Conv2d(2048, 2048, kernel_size=(1, 1), stride=(1, 1), groups=4)
                (1): BatchNorm2d(2048, eps=1e-05, momentum=0.1, affine=True, track_running_stats=True)
                (2): GELU(approximate='none')
              )
            )
            (dilated_knn_graph): DenseDilatedKnnGraph(
              (_dilated): DenseDilated()
            )
          )
          (fc2): Sequential(
            (0): Conv2d(2048, 1024, kernel_size=(1, 1), stride=(1, 1))
            (1): BatchNorm2d(1024, eps=1e-05, momentum=0.1, affine=True, track_running_stats=True)
          )
          (drop_path): Identity()
        )
        (1): AttentionBlock(
          (key): Linear(in_features=1024, out_features=1024, bias=True)
          (value): Linear(in_features=1024, out_features=1024, bias=True)
          (query): Linear(in_features=1024, out_features=1024, bias=True)
          (attention): MultiheadAttention(
            (out_proj): NonDynamicallyQuantizableLinear(in_features=1024, out_features=1024, bias=True)
          )
        )
        (2): FFN(
          (fc1): Sequential(
            (0): Conv2d(1024, 2048, kernel_size=(1, 1), stride=(1, 1))
            (1): BatchNorm2d(2048, eps=1e-05, momentum=0.1, affine=True, track_running_stats=True)
          )
          (act): GELU(approximate='none')
          (fc2): Sequential(
            (0): Conv2d(2048, 1024, kernel_size=(1, 1), stride=(1, 1))
            (1): BatchNorm2d(1024, eps=1e-05, momentum=0.1, affine=True, track_running_stats=True)
          )
          (drop_path): Identity()
        )
      )
      (6): Sequential(
        (0): Grapher(
          (fc1): Sequential(
            (0): Conv2d(1024, 1024, kernel_size=(1, 1), stride=(1, 1))
            (1): BatchNorm2d(1024, eps=1e-05, momentum=0.1, affine=True, track_running_stats=True)
          )
          (graph_conv): DyGraphConv2d(
            (gconv): EdgeConv2d(
              (nn): BasicConv(
                (0): Conv2d(2048, 2048, kernel_size=(1, 1), stride=(1, 1), groups=4)
                (1): BatchNorm2d(2048, eps=1e-05, momentum=0.1, affine=True, track_running_stats=True)
                (2): GELU(approximate='none')
              )
            )
            (dilated_knn_graph): DenseDilatedKnnGraph(
              (_dilated): DenseDilated()
            )
          )
          (fc2): Sequential(
            (0): Conv2d(2048, 1024, kernel_size=(1, 1), stride=(1, 1))
            (1): BatchNorm2d(1024, eps=1e-05, momentum=0.1, affine=True, track_running_stats=True)
          )
          (drop_path): Identity()
        )
        (1): AttentionBlock(
          (key): Linear(in_features=1024, out_features=1024, bias=True)
          (value): Linear(in_features=1024, out_features=1024, bias=True)
          (query): Linear(in_features=1024, out_features=1024, bias=True)
          (attention): MultiheadAttention(
            (out_proj): NonDynamicallyQuantizableLinear(in_features=1024, out_features=1024, bias=True)
          )
        )
        (2): FFN(
          (fc1): Sequential(
            (0): Conv2d(1024, 2048, kernel_size=(1, 1), stride=(1, 1))
            (1): BatchNorm2d(2048, eps=1e-05, momentum=0.1, affine=True, track_running_stats=True)
          )
          (act): GELU(approximate='none')
          (fc2): Sequential(
            (0): Conv2d(2048, 1024, kernel_size=(1, 1), stride=(1, 1))
            (1): BatchNorm2d(1024, eps=1e-05, momentum=0.1, affine=True, track_running_stats=True)
          )
          (drop_path): Identity()
        )
      )
      (7): Sequential(
        (0): Grapher(
          (fc1): Sequential(
            (0): Conv2d(1024, 1024, kernel_size=(1, 1), stride=(1, 1))
            (1): BatchNorm2d(1024, eps=1e-05, momentum=0.1, affine=True, track_running_stats=True)
          )
          (graph_conv): DyGraphConv2d(
            (gconv): EdgeConv2d(
              (nn): BasicConv(
                (0): Conv2d(2048, 2048, kernel_size=(1, 1), stride=(1, 1), groups=4)
                (1): BatchNorm2d(2048, eps=1e-05, momentum=0.1, affine=True, track_running_stats=True)
                (2): GELU(approximate='none')
              )
            )
            (dilated_knn_graph): DenseDilatedKnnGraph(
              (_dilated): DenseDilated()
            )
          )
          (fc2): Sequential(
            (0): Conv2d(2048, 1024, kernel_size=(1, 1), stride=(1, 1))
            (1): BatchNorm2d(1024, eps=1e-05, momentum=0.1, affine=True, track_running_stats=True)
          )
          (drop_path): Identity()
        )
        (1): AttentionBlock(
          (key): Linear(in_features=1024, out_features=1024, bias=True)
          (value): Linear(in_features=1024, out_features=1024, bias=True)
          (query): Linear(in_features=1024, out_features=1024, bias=True)
          (attention): MultiheadAttention(
            (out_proj): NonDynamicallyQuantizableLinear(in_features=1024, out_features=1024, bias=True)
          )
        )
        (2): FFN(
          (fc1): Sequential(
            (0): Conv2d(1024, 2048, kernel_size=(1, 1), stride=(1, 1))
            (1): BatchNorm2d(2048, eps=1e-05, momentum=0.1, affine=True, track_running_stats=True)
          )
          (act): GELU(approximate='none')
          (fc2): Sequential(
            (0): Conv2d(2048, 1024, kernel_size=(1, 1), stride=(1, 1))
            (1): BatchNorm2d(1024, eps=1e-05, momentum=0.1, affine=True, track_running_stats=True)
          )
          (drop_path): Identity()
        )
      )
      (8): Sequential(
        (0): Grapher(
          (fc1): Sequential(
            (0): Conv2d(1024, 1024, kernel_size=(1, 1), stride=(1, 1))
            (1): BatchNorm2d(1024, eps=1e-05, momentum=0.1, affine=True, track_running_stats=True)
          )
          (graph_conv): DyGraphConv2d(
            (gconv): EdgeConv2d(
              (nn): BasicConv(
                (0): Conv2d(2048, 2048, kernel_size=(1, 1), stride=(1, 1), groups=4)
                (1): BatchNorm2d(2048, eps=1e-05, momentum=0.1, affine=True, track_running_stats=True)
                (2): GELU(approximate='none')
              )
            )
            (dilated_knn_graph): DenseDilatedKnnGraph(
              (_dilated): DenseDilated()
            )
          )
          (fc2): Sequential(
            (0): Conv2d(2048, 1024, kernel_size=(1, 1), stride=(1, 1))
            (1): BatchNorm2d(1024, eps=1e-05, momentum=0.1, affine=True, track_running_stats=True)
          )
          (drop_path): Identity()
        )
        (1): AttentionBlock(
          (key): Linear(in_features=1024, out_features=1024, bias=True)
          (value): Linear(in_features=1024, out_features=1024, bias=True)
          (query): Linear(in_features=1024, out_features=1024, bias=True)
          (attention): MultiheadAttention(
            (out_proj): NonDynamicallyQuantizableLinear(in_features=1024, out_features=1024, bias=True)
          )
        )
        (2): FFN(
          (fc1): Sequential(
            (0): Conv2d(1024, 2048, kernel_size=(1, 1), stride=(1, 1))
            (1): BatchNorm2d(2048, eps=1e-05, momentum=0.1, affine=True, track_running_stats=True)
          )
          (act): GELU(approximate='none')
          (fc2): Sequential(
            (0): Conv2d(2048, 1024, kernel_size=(1, 1), stride=(1, 1))
            (1): BatchNorm2d(1024, eps=1e-05, momentum=0.1, affine=True, track_running_stats=True)
          )
          (drop_path): Identity()
        )
      )
      (9): Sequential(
        (0): Grapher(
          (fc1): Sequential(
            (0): Conv2d(1024, 1024, kernel_size=(1, 1), stride=(1, 1))
            (1): BatchNorm2d(1024, eps=1e-05, momentum=0.1, affine=True, track_running_stats=True)
          )
          (graph_conv): DyGraphConv2d(
            (gconv): EdgeConv2d(
              (nn): BasicConv(
                (0): Conv2d(2048, 2048, kernel_size=(1, 1), stride=(1, 1), groups=4)
                (1): BatchNorm2d(2048, eps=1e-05, momentum=0.1, affine=True, track_running_stats=True)
                (2): GELU(approximate='none')
              )
            )
            (dilated_knn_graph): DenseDilatedKnnGraph(
              (_dilated): DenseDilated()
            )
          )
          (fc2): Sequential(
            (0): Conv2d(2048, 1024, kernel_size=(1, 1), stride=(1, 1))
            (1): BatchNorm2d(1024, eps=1e-05, momentum=0.1, affine=True, track_running_stats=True)
          )
          (drop_path): Identity()
        )
        (1): AttentionBlock(
          (key): Linear(in_features=1024, out_features=1024, bias=True)
          (value): Linear(in_features=1024, out_features=1024, bias=True)
          (query): Linear(in_features=1024, out_features=1024, bias=True)
          (attention): MultiheadAttention(
            (out_proj): NonDynamicallyQuantizableLinear(in_features=1024, out_features=1024, bias=True)
          )
        )
        (2): FFN(
          (fc1): Sequential(
            (0): Conv2d(1024, 2048, kernel_size=(1, 1), stride=(1, 1))
            (1): BatchNorm2d(2048, eps=1e-05, momentum=0.1, affine=True, track_running_stats=True)
          )
          (act): GELU(approximate='none')
          (fc2): Sequential(
            (0): Conv2d(2048, 1024, kernel_size=(1, 1), stride=(1, 1))
            (1): BatchNorm2d(1024, eps=1e-05, momentum=0.1, affine=True, track_running_stats=True)
          )
          (drop_path): Identity()
        )
      )
      (10): Sequential(
        (0): Grapher(
          (fc1): Sequential(
2023-09-18 13:29:57,283 - root - INFO - Using device: cuda
2023-09-18 13:29:57,458 - root - INFO - Quadro M5000
2023-09-18 13:29:57,459 - root - INFO - Memory Usage:
2023-09-18 13:29:57,547 - root - INFO - Allocated: 0.7 GB
…
