Using device: cuda
Quadro M5000
Memory Usage:
Allocated: 0.0 GB
Cached:    0.0 GB
dpr [0.0, 0.0, 0.0, 0.0, 0.0, 0.0, 0.0, 0.0, 0.0, 0.0, 0.0, 0.0]
num_knn [9, 9, 10, 11, 12, 13, 13, 14, 15, 16, 17, 18]
IsoTropicVIG(
  (backbone): IsotropicBackBone(
    (backbone): Sequential(
      (0): Sequential(
        (0): Grapher(
          (fc1): Sequential(
            (0): Conv2d(1024, 1024, kernel_size=(1, 1), stride=(1, 1))
            (1): BatchNorm2d(1024, eps=1e-05, momentum=0.1, affine=True, track_running_stats=True)
          )
          (graph_conv): DyGraphConv2d(
            (gconv): MRConv2d(
              (nn): BasicConv(
                (0): Conv2d(2048, 2048, kernel_size=(1, 1), stride=(1, 1), groups=4)
                (1): BatchNorm2d(2048, eps=1e-05, momentum=0.1, affine=True, track_running_stats=True)
                (2): GELU(approximate='none')
              )
            )
            (dilated_knn_graph): DenseDilatedKnnGraph(
              (_dilated): DenseDilated()
            )
          )
          (fc2): Sequential(
            (0): Conv2d(2048, 1024, kernel_size=(1, 1), stride=(1, 1))
            (1): BatchNorm2d(1024, eps=1e-05, momentum=0.1, affine=True, track_running_stats=True)
          )
          (drop_path): Identity()
        )
        (1): FFN(
          (fc1): Sequential(
            (0): Conv2d(1024, 4096, kernel_size=(1, 1), stride=(1, 1))
            (1): BatchNorm2d(4096, eps=1e-05, momentum=0.1, affine=True, track_running_stats=True)
          )
          (act): GELU(approximate='none')
          (fc2): Sequential(
            (0): Conv2d(4096, 1024, kernel_size=(1, 1), stride=(1, 1))
            (1): BatchNorm2d(1024, eps=1e-05, momentum=0.1, affine=True, track_running_stats=True)
          )
          (drop_path): Identity()
        )
      )
      (1): Sequential(
        (0): Grapher(
          (fc1): Sequential(
            (0): Conv2d(1024, 1024, kernel_size=(1, 1), stride=(1, 1))
            (1): BatchNorm2d(1024, eps=1e-05, momentum=0.1, affine=True, track_running_stats=True)
          )
          (graph_conv): DyGraphConv2d(
            (gconv): MRConv2d(
              (nn): BasicConv(
                (0): Conv2d(2048, 2048, kernel_size=(1, 1), stride=(1, 1), groups=4)
                (1): BatchNorm2d(2048, eps=1e-05, momentum=0.1, affine=True, track_running_stats=True)
                (2): GELU(approximate='none')
              )
            )
            (dilated_knn_graph): DenseDilatedKnnGraph(
              (_dilated): DenseDilated()
            )
          )
          (fc2): Sequential(
            (0): Conv2d(2048, 1024, kernel_size=(1, 1), stride=(1, 1))
            (1): BatchNorm2d(1024, eps=1e-05, momentum=0.1, affine=True, track_running_stats=True)
          )
          (drop_path): Identity()
        )
        (1): FFN(
          (fc1): Sequential(
            (0): Conv2d(1024, 4096, kernel_size=(1, 1), stride=(1, 1))
            (1): BatchNorm2d(4096, eps=1e-05, momentum=0.1, affine=True, track_running_stats=True)
          )
          (act): GELU(approximate='none')
          (fc2): Sequential(
            (0): Conv2d(4096, 1024, kernel_size=(1, 1), stride=(1, 1))
            (1): BatchNorm2d(1024, eps=1e-05, momentum=0.1, affine=True, track_running_stats=True)
          )
          (drop_path): Identity()
        )
      )
      (2): Sequential(
        (0): Grapher(
          (fc1): Sequential(
            (0): Conv2d(1024, 1024, kernel_size=(1, 1), stride=(1, 1))
            (1): BatchNorm2d(1024, eps=1e-05, momentum=0.1, affine=True, track_running_stats=True)
          )
          (graph_conv): DyGraphConv2d(
            (gconv): MRConv2d(
              (nn): BasicConv(
                (0): Conv2d(2048, 2048, kernel_size=(1, 1), stride=(1, 1), groups=4)
                (1): BatchNorm2d(2048, eps=1e-05, momentum=0.1, affine=True, track_running_stats=True)
                (2): GELU(approximate='none')
              )
            )
            (dilated_knn_graph): DenseDilatedKnnGraph(
              (_dilated): DenseDilated()
            )
          )
          (fc2): Sequential(
            (0): Conv2d(2048, 1024, kernel_size=(1, 1), stride=(1, 1))
            (1): BatchNorm2d(1024, eps=1e-05, momentum=0.1, affine=True, track_running_stats=True)
          )
          (drop_path): Identity()
        )
        (1): FFN(
          (fc1): Sequential(
            (0): Conv2d(1024, 4096, kernel_size=(1, 1), stride=(1, 1))
            (1): BatchNorm2d(4096, eps=1e-05, momentum=0.1, affine=True, track_running_stats=True)
          )
          (act): GELU(approximate='none')
          (fc2): Sequential(
            (0): Conv2d(4096, 1024, kernel_size=(1, 1), stride=(1, 1))
            (1): BatchNorm2d(1024, eps=1e-05, momentum=0.1, affine=True, track_running_stats=True)
          )
          (drop_path): Identity()
        )
      )
      (3): Sequential(
        (0): Grapher(
          (fc1): Sequential(
            (0): Conv2d(1024, 1024, kernel_size=(1, 1), stride=(1, 1))
            (1): BatchNorm2d(1024, eps=1e-05, momentum=0.1, affine=True, track_running_stats=True)
          )
          (graph_conv): DyGraphConv2d(
            (gconv): MRConv2d(
              (nn): BasicConv(
                (0): Conv2d(2048, 2048, kernel_size=(1, 1), stride=(1, 1), groups=4)
                (1): BatchNorm2d(2048, eps=1e-05, momentum=0.1, affine=True, track_running_stats=True)
                (2): GELU(approximate='none')
              )
            )
            (dilated_knn_graph): DenseDilatedKnnGraph(
              (_dilated): DenseDilated()
            )
          )
          (fc2): Sequential(
            (0): Conv2d(2048, 1024, kernel_size=(1, 1), stride=(1, 1))
            (1): BatchNorm2d(1024, eps=1e-05, momentum=0.1, affine=True, track_running_stats=True)
          )
          (drop_path): Identity()
        )
        (1): FFN(
          (fc1): Sequential(
            (0): Conv2d(1024, 4096, kernel_size=(1, 1), stride=(1, 1))
            (1): BatchNorm2d(4096, eps=1e-05, momentum=0.1, affine=True, track_running_stats=True)
          )
          (act): GELU(approximate='none')
          (fc2): Sequential(
            (0): Conv2d(4096, 1024, kernel_size=(1, 1), stride=(1, 1))
            (1): BatchNorm2d(1024, eps=1e-05, momentum=0.1, affine=True, track_running_stats=True)
          )
          (drop_path): Identity()
        )
      )
      (4): Sequential(
        (0): Grapher(
          (fc1): Sequential(
            (0): Conv2d(1024, 1024, kernel_size=(1, 1), stride=(1, 1))
            (1): BatchNorm2d(1024, eps=1e-05, momentum=0.1, affine=True, track_running_stats=True)
          )
          (graph_conv): DyGraphConv2d(
            (gconv): MRConv2d(
              (nn): BasicConv(
                (0): Conv2d(2048, 2048, kernel_size=(1, 1), stride=(1, 1), groups=4)
                (1): BatchNorm2d(2048, eps=1e-05, momentum=0.1, affine=True, track_running_stats=True)
                (2): GELU(approximate='none')
              )
            )
            (dilated_knn_graph): DenseDilatedKnnGraph(
              (_dilated): DenseDilated()
            )
          )
          (fc2): Sequential(
            (0): Conv2d(2048, 1024, kernel_size=(1, 1), stride=(1, 1))
            (1): BatchNorm2d(1024, eps=1e-05, momentum=0.1, affine=True, track_running_stats=True)
          )
          (drop_path): Identity()
        )
        (1): FFN(
          (fc1): Sequential(
            (0): Conv2d(1024, 4096, kernel_size=(1, 1), stride=(1, 1))
            (1): BatchNorm2d(4096, eps=1e-05, momentum=0.1, affine=True, track_running_stats=True)
          )
          (act): GELU(approximate='none')
          (fc2): Sequential(
            (0): Conv2d(4096, 1024, kernel_size=(1, 1), stride=(1, 1))
            (1): BatchNorm2d(1024, eps=1e-05, momentum=0.1, affine=True, track_running_stats=True)
          )
          (drop_path): Identity()
        )
      )
      (5): Sequential(
        (0): Grapher(
          (fc1): Sequential(
            (0): Conv2d(1024, 1024, kernel_size=(1, 1), stride=(1, 1))
            (1): BatchNorm2d(1024, eps=1e-05, momentum=0.1, affine=True, track_running_stats=True)
          )
          (graph_conv): DyGraphConv2d(
            (gconv): MRConv2d(
              (nn): BasicConv(
                (0): Conv2d(2048, 2048, kernel_size=(1, 1), stride=(1, 1), groups=4)
                (1): BatchNorm2d(2048, eps=1e-05, momentum=0.1, affine=True, track_running_stats=True)
                (2): GELU(approximate='none')
              )
            )
            (dilated_knn_graph): DenseDilatedKnnGraph(
              (_dilated): DenseDilated()
            )
          )
          (fc2): Sequential(
            (0): Conv2d(2048, 1024, kernel_size=(1, 1), stride=(1, 1))
            (1): BatchNorm2d(1024, eps=1e-05, momentum=0.1, affine=True, track_running_stats=True)
          )
          (drop_path): Identity()
        )
        (1): FFN(
          (fc1): Sequential(
            (0): Conv2d(1024, 4096, kernel_size=(1, 1), stride=(1, 1))
            (1): BatchNorm2d(4096, eps=1e-05, momentum=0.1, affine=True, track_running_stats=True)
          )
          (act): GELU(approximate='none')
          (fc2): Sequential(
            (0): Conv2d(4096, 1024, kernel_size=(1, 1), stride=(1, 1))
            (1): BatchNorm2d(1024, eps=1e-05, momentum=0.1, affine=True, track_running_stats=True)
          )
          (drop_path): Identity()
        )
      )
      (6): Sequential(
        (0): Grapher(
          (fc1): Sequential(
            (0): Conv2d(1024, 1024, kernel_size=(1, 1), stride=(1, 1))
            (1): BatchNorm2d(1024, eps=1e-05, momentum=0.1, affine=True, track_running_stats=True)
          )
          (graph_conv): DyGraphConv2d(
            (gconv): MRConv2d(
              (nn): BasicConv(
                (0): Conv2d(2048, 2048, kernel_size=(1, 1), stride=(1, 1), groups=4)
                (1): BatchNorm2d(2048, eps=1e-05, momentum=0.1, affine=True, track_running_stats=True)
                (2): GELU(approximate='none')
              )
            )
            (dilated_knn_graph): DenseDilatedKnnGraph(
              (_dilated): DenseDilated()
            )
          )
          (fc2): Sequential(
            (0): Conv2d(2048, 1024, kernel_size=(1, 1), stride=(1, 1))
            (1): BatchNorm2d(1024, eps=1e-05, momentum=0.1, affine=True, track_running_stats=True)
          )
          (drop_path): Identity()
        )
        (1): FFN(
          (fc1): Sequential(
            (0): Conv2d(1024, 4096, kernel_size=(1, 1), stride=(1, 1))
            (1): BatchNorm2d(4096, eps=1e-05, momentum=0.1, affine=True, track_running_stats=True)
          )
          (act): GELU(approximate='none')
          (fc2): Sequential(
            (0): Conv2d(4096, 1024, kernel_size=(1, 1), stride=(1, 1))
            (1): BatchNorm2d(1024, eps=1e-05, momentum=0.1, affine=True, track_running_stats=True)
          )
          (drop_path): Identity()
        )
      )
      (7): Sequential(
        (0): Grapher(
          (fc1): Sequential(
            (0): Conv2d(1024, 1024, kernel_size=(1, 1), stride=(1, 1))
            (1): BatchNorm2d(1024, eps=1e-05, momentum=0.1, affine=True, track_running_stats=True)
          )
          (graph_conv): DyGraphConv2d(
            (gconv): MRConv2d(
              (nn): BasicConv(
                (0): Conv2d(2048, 2048, kernel_size=(1, 1), stride=(1, 1), groups=4)
                (1): BatchNorm2d(2048, eps=1e-05, momentum=0.1, affine=True, track_running_stats=True)
                (2): GELU(approximate='none')
              )
            )
            (dilated_knn_graph): DenseDilatedKnnGraph(
              (_dilated): DenseDilated()
            )
          )
          (fc2): Sequential(
            (0): Conv2d(2048, 1024, kernel_size=(1, 1), stride=(1, 1))
            (1): BatchNorm2d(1024, eps=1e-05, momentum=0.1, affine=True, track_running_stats=True)
          )
          (drop_path): Identity()
        )
        (1): FFN(
          (fc1): Sequential(
            (0): Conv2d(1024, 4096, kernel_size=(1, 1), stride=(1, 1))
            (1): BatchNorm2d(4096, eps=1e-05, momentum=0.1, affine=True, track_running_stats=True)
          )
          (act): GELU(approximate='none')
          (fc2): Sequential(
            (0): Conv2d(4096, 1024, kernel_size=(1, 1), stride=(1, 1))
            (1): BatchNorm2d(1024, eps=1e-05, momentum=0.1, affine=True, track_running_stats=True)
          )
          (drop_path): Identity()
        )
      )
      (8): Sequential(
        (0): Grapher(
          (fc1): Sequential(
            (0): Conv2d(1024, 1024, kernel_size=(1, 1), stride=(1, 1))
            (1): BatchNorm2d(1024, eps=1e-05, momentum=0.1, affine=True, track_running_stats=True)
          )
          (graph_conv): DyGraphConv2d(
            (gconv): MRConv2d(
              (nn): BasicConv(
                (0): Conv2d(2048, 2048, kernel_size=(1, 1), stride=(1, 1), groups=4)
                (1): BatchNorm2d(2048, eps=1e-05, momentum=0.1, affine=True, track_running_stats=True)
                (2): GELU(approximate='none')
              )
            )
            (dilated_knn_graph): DenseDilatedKnnGraph(
              (_dilated): DenseDilated()
            )
          )
          (fc2): Sequential(
            (0): Conv2d(2048, 1024, kernel_size=(1, 1), stride=(1, 1))
            (1): BatchNorm2d(1024, eps=1e-05, momentum=0.1, affine=True, track_running_stats=True)
          )
          (drop_path): Identity()
        )
        (1): FFN(
          (fc1): Sequential(
            (0): Conv2d(1024, 4096, kernel_size=(1, 1), stride=(1, 1))
            (1): BatchNorm2d(4096, eps=1e-05, momentum=0.1, affine=True, track_running_stats=True)
          )
          (act): GELU(approximate='none')
          (fc2): Sequential(
            (0): Conv2d(4096, 1024, kernel_size=(1, 1), stride=(1, 1))
            (1): BatchNorm2d(1024, eps=1e-05, momentum=0.1, affine=True, track_running_stats=True)
          )
          (drop_path): Identity()
        )
      )
      (9): Sequential(
        (0): Grapher(
          (fc1): Sequential(
            (0): Conv2d(1024, 1024, kernel_size=(1, 1), stride=(1, 1))
            (1): BatchNorm2d(1024, eps=1e-05, momentum=0.1, affine=True, track_running_stats=True)
          )
          (graph_conv): DyGraphConv2d(
            (gconv): MRConv2d(
              (nn): BasicConv(
                (0): Conv2d(2048, 2048, kernel_size=(1, 1), stride=(1, 1), groups=4)
                (1): BatchNorm2d(2048, eps=1e-05, momentum=0.1, affine=True, track_running_stats=True)
                (2): GELU(approximate='none')
              )
            )
            (dilated_knn_graph): DenseDilatedKnnGraph(
              (_dilated): DenseDilated()
            )
          )
          (fc2): Sequential(
            (0): Conv2d(2048, 1024, kernel_size=(1, 1), stride=(1, 1))
            (1): BatchNorm2d(1024, eps=1e-05, momentum=0.1, affine=True, track_running_stats=True)
          )
          (drop_path): Identity()
        )
        (1): FFN(
          (fc1): Sequential(
            (0): Conv2d(1024, 4096, kernel_size=(1, 1), stride=(1, 1))
            (1): BatchNorm2d(4096, eps=1e-05, momentum=0.1, affine=True, track_running_stats=True)
          )
          (act): GELU(approximate='none')
          (fc2): Sequential(
            (0): Conv2d(4096, 1024, kernel_size=(1, 1), stride=(1, 1))
            (1): BatchNorm2d(1024, eps=1e-05, momentum=0.1, affine=True, track_running_stats=True)
          )
          (drop_path): Identity()
        )
      )
      (10): Sequential(
        (0): Grapher(
          (fc1): Sequential(
            (0): Conv2d(1024, 1024, kernel_size=(1, 1), stride=(1, 1))
            (1): BatchNorm2d(1024, eps=1e-05, momentum=0.1, affine=True, track_running_stats=True)
          )
          (graph_conv): DyGraphConv2d(
            (gconv): MRConv2d(
              (nn): BasicConv(
                (0): Conv2d(2048, 2048, kernel_size=(1, 1), stride=(1, 1), groups=4)
                (1): BatchNorm2d(2048, eps=1e-05, momentum=0.1, affine=True, track_running_stats=True)
                (2): GELU(approximate='none')
              )
            )
            (dilated_knn_graph): DenseDilatedKnnGraph(
              (_dilated): DenseDilated()
            )
          )
          (fc2): Sequential(
            (0): Conv2d(2048, 1024, kernel_size=(1, 1), stride=(1, 1))
            (1): BatchNorm2d(1024, eps=1e-05, momentum=0.1, affine=True, track_running_stats=True)
          )
          (drop_path): Identity()
        )
        (1): FFN(
          (fc1): Sequential(
            (0): Conv2d(1024, 4096, kernel_size=(1, 1), stride=(1, 1))
            (1): BatchNorm2d(4096, eps=1e-05, momentum=0.1, affine=True, track_running_stats=True)
          )
          (act): GELU(approximate='none')
          (fc2): Sequential(
            (0): Conv2d(4096, 1024, kernel_size=(1, 1), stride=(1, 1))
            (1): BatchNorm2d(1024, eps=1e-05, momentum=0.1, affine=True, track_running_stats=True)
          )
          (drop_path): Identity()
        )
      )
      (11): Sequential(
        (0): Grapher(
          (fc1): Sequential(
            (0): Conv2d(1024, 1024, kernel_size=(1, 1), stride=(1, 1))
            (1): BatchNorm2d(1024, eps=1e-05, momentum=0.1, affine=True, track_running_stats=True)
          )
          (graph_conv): DyGraphConv2d(
            (gconv): MRConv2d(
              (nn): BasicConv(
                (0): Conv2d(2048, 2048, kernel_size=(1, 1), stride=(1, 1), groups=4)
                (1): BatchNorm2d(2048, eps=1e-05, momentum=0.1, affine=True, track_running_stats=True)
                (2): GELU(approximate='none')
              )
            )
            (dilated_knn_graph): DenseDilatedKnnGraph(
              (_dilated): DenseDilated()
            )
          )
          (fc2): Sequential(
            (0): Conv2d(2048, 1024, kernel_size=(1, 1), stride=(1, 1))
            (1): BatchNorm2d(1024, eps=1e-05, momentum=0.1, affine=True, track_running_stats=True)
          )
          (drop_path): Identity()
        )
        (1): FFN(
          (fc1): Sequential(
            (0): Conv2d(1024, 4096, kernel_size=(1, 1), stride=(1, 1))
            (1): BatchNorm2d(4096, eps=1e-05, momentum=0.1, affine=True, track_running_stats=True)
          )
          (act): GELU(approximate='none')
          (fc2): Sequential(
            (0): Conv2d(4096, 1024, kernel_size=(1, 1), stride=(1, 1))
            (1): BatchNorm2d(1024, eps=1e-05, momentum=0.1, affine=True, track_running_stats=True)
          )
          (drop_path): Identity()
        )
      )
    )
  )
  (predictor): ConvPredictor(
    (predictor): Sequential(
      (0): Conv2d(1024, 512, kernel_size=(1, 1), stride=(1, 1))
      (1): BatchNorm2d(512, eps=1e-05, momentum=0.1, affine=True, track_running_stats=True)
      (2): GELU(approximate='none')
      (3): Dropout(p=0.0, inplace=False)
      (4): Conv2d(512, 600, kernel_size=(1, 1), stride=(1, 1))
    )
  )
)
2023-09-14 13:40:18,657 - root - INFO - Preprocessing MMCBNU6000 dataset for train split.
100%|████████████████████████████████████████████████████████████████████████████████████████████████████████████| 4200/4200 [00:00<00:00, 4944.12it/s]
2023-09-14 13:40:19,887 - root - INFO - Preprocessing MMCBNU6000 dataset for test split.
0it [00:00, ?it/s]
…
