Using device: cuda
NVIDIA GeForce GTX 1050 Ti
Memory Usage:
Allocated: 0.0 GB
Cached:    0.0 GB
dpr [0.0, 0.0, 0.0, 0.0, 0.0, 0.0, 0.0, 0.0, 0.0, 0.0, 0.0, 0.0]
num_knn [9, 9, 10, 11, 12, 13, 13, 14, 15, 16, 17, 18]
IsoTropicVIG(
  (stem): Stem(
    (stem): Sequential(
      (0): Conv2d(1, 32, kernel_size=(3, 3), stride=(2, 2), padding=(1, 1))
      (1): BatchNorm2d(32, eps=1e-05, momentum=0.1, affine=True, track_running_stats=True)
      (2): GELU(approximate='none')
      (3): Conv2d(32, 64, kernel_size=(3, 3), stride=(2, 2), padding=(1, 1))
      (4): BatchNorm2d(64, eps=1e-05, momentum=0.1, affine=True, track_running_stats=True)
      (5): GELU(approximate='none')
      (6): Conv2d(64, 128, kernel_size=(3, 3), stride=(2, 2), padding=(1, 1))
      (7): BatchNorm2d(128, eps=1e-05, momentum=0.1, affine=True, track_running_stats=True)
      (8): GELU(approximate='none')
      (9): Conv2d(128, 256, kernel_size=(3, 3), stride=(2, 2), padding=(1, 1))
      (10): BatchNorm2d(256, eps=1e-05, momentum=0.1, affine=True, track_running_stats=True)
      (11): GELU(approximate='none')
      (12): Conv2d(256, 256, kernel_size=(3, 3), stride=(1, 1), padding=(1, 1))
      (13): BatchNorm2d(256, eps=1e-05, momentum=0.1, affine=True, track_running_stats=True)
    )
  )
  (backbone): IsotropicBackBone(
    (backbone): Sequential(
      (0): Sequential(
        (0): LinAttentionBlock(
          (k): Linear(in_features=256, out_features=256, bias=True)
          (v): Linear(in_features=256, out_features=256, bias=True)
          (q): Linear(in_features=256, out_features=256, bias=True)
          (attention): MultiheadAttention(
            (out_proj): NonDynamicallyQuantizableLinear(in_features=256, out_features=256, bias=True)
          )
        )
        (1): FFN(
          (fc1): Sequential(
            (0): Conv2d(256, 1024, kernel_size=(1, 1), stride=(1, 1))
            (1): BatchNorm2d(1024, eps=1e-05, momentum=0.1, affine=True, track_running_stats=True)
          )
          (act): GELU(approximate='none')
          (fc2): Sequential(
            (0): Conv2d(1024, 256, kernel_size=(1, 1), stride=(1, 1))
            (1): BatchNorm2d(256, eps=1e-05, momentum=0.1, affine=True, track_running_stats=True)
          )
          (drop_path): Identity()
        )
      )
      (1): Sequential(
        (0): LinAttentionBlock(
          (k): Linear(in_features=256, out_features=256, bias=True)
          (v): Linear(in_features=256, out_features=256, bias=True)
          (q): Linear(in_features=256, out_features=256, bias=True)
          (attention): MultiheadAttention(
            (out_proj): NonDynamicallyQuantizableLinear(in_features=256, out_features=256, bias=True)
          )
        )
        (1): FFN(
          (fc1): Sequential(
            (0): Conv2d(256, 1024, kernel_size=(1, 1), stride=(1, 1))
            (1): BatchNorm2d(1024, eps=1e-05, momentum=0.1, affine=True, track_running_stats=True)
          )
          (act): GELU(approximate='none')
          (fc2): Sequential(
            (0): Conv2d(1024, 256, kernel_size=(1, 1), stride=(1, 1))
            (1): BatchNorm2d(256, eps=1e-05, momentum=0.1, affine=True, track_running_stats=True)
          )
          (drop_path): Identity()
        )
      )
      (2): Sequential(
        (0): LinAttentionBlock(
          (k): Linear(in_features=256, out_features=256, bias=True)
          (v): Linear(in_features=256, out_features=256, bias=True)
          (q): Linear(in_features=256, out_features=256, bias=True)
          (attention): MultiheadAttention(
            (out_proj): NonDynamicallyQuantizableLinear(in_features=256, out_features=256, bias=True)
          )
        )
        (1): FFN(
          (fc1): Sequential(
            (0): Conv2d(256, 1024, kernel_size=(1, 1), stride=(1, 1))
            (1): BatchNorm2d(1024, eps=1e-05, momentum=0.1, affine=True, track_running_stats=True)
          )
          (act): GELU(approximate='none')
          (fc2): Sequential(
            (0): Conv2d(1024, 256, kernel_size=(1, 1), stride=(1, 1))
            (1): BatchNorm2d(256, eps=1e-05, momentum=0.1, affine=True, track_running_stats=True)
          )
          (drop_path): Identity()
        )
      )
      (3): Sequential(
        (0): LinAttentionBlock(
          (k): Linear(in_features=256, out_features=256, bias=True)
          (v): Linear(in_features=256, out_features=256, bias=True)
          (q): Linear(in_features=256, out_features=256, bias=True)
          (attention): MultiheadAttention(
            (out_proj): NonDynamicallyQuantizableLinear(in_features=256, out_features=256, bias=True)
          )
        )
        (1): FFN(
          (fc1): Sequential(
            (0): Conv2d(256, 1024, kernel_size=(1, 1), stride=(1, 1))
            (1): BatchNorm2d(1024, eps=1e-05, momentum=0.1, affine=True, track_running_stats=True)
          )
          (act): GELU(approximate='none')
          (fc2): Sequential(
            (0): Conv2d(1024, 256, kernel_size=(1, 1), stride=(1, 1))
            (1): BatchNorm2d(256, eps=1e-05, momentum=0.1, affine=True, track_running_stats=True)
          )
          (drop_path): Identity()
        )
      )
      (4): Sequential(
        (0): LinAttentionBlock(
          (k): Linear(in_features=256, out_features=256, bias=True)
          (v): Linear(in_features=256, out_features=256, bias=True)
          (q): Linear(in_features=256, out_features=256, bias=True)
          (attention): MultiheadAttention(
            (out_proj): NonDynamicallyQuantizableLinear(in_features=256, out_features=256, bias=True)
          )
        )
        (1): FFN(
          (fc1): Sequential(
            (0): Conv2d(256, 1024, kernel_size=(1, 1), stride=(1, 1))
            (1): BatchNorm2d(1024, eps=1e-05, momentum=0.1, affine=True, track_running_stats=True)
          )
          (act): GELU(approximate='none')
          (fc2): Sequential(
            (0): Conv2d(1024, 256, kernel_size=(1, 1), stride=(1, 1))
            (1): BatchNorm2d(256, eps=1e-05, momentum=0.1, affine=True, track_running_stats=True)
          )
          (drop_path): Identity()
        )
      )
      (5): Sequential(
        (0): LinAttentionBlock(
          (k): Linear(in_features=256, out_features=256, bias=True)
          (v): Linear(in_features=256, out_features=256, bias=True)
          (q): Linear(in_features=256, out_features=256, bias=True)
          (attention): MultiheadAttention(
            (out_proj): NonDynamicallyQuantizableLinear(in_features=256, out_features=256, bias=True)
          )
        )
        (1): FFN(
          (fc1): Sequential(
            (0): Conv2d(256, 1024, kernel_size=(1, 1), stride=(1, 1))
            (1): BatchNorm2d(1024, eps=1e-05, momentum=0.1, affine=True, track_running_stats=True)
          )
          (act): GELU(approximate='none')
          (fc2): Sequential(
            (0): Conv2d(1024, 256, kernel_size=(1, 1), stride=(1, 1))
            (1): BatchNorm2d(256, eps=1e-05, momentum=0.1, affine=True, track_running_stats=True)
          )
          (drop_path): Identity()
        )
      )
      (6): Sequential(
        (0): LinAttentionBlock(
          (k): Linear(in_features=256, out_features=256, bias=True)
          (v): Linear(in_features=256, out_features=256, bias=True)
          (q): Linear(in_features=256, out_features=256, bias=True)
          (attention): MultiheadAttention(
            (out_proj): NonDynamicallyQuantizableLinear(in_features=256, out_features=256, bias=True)
          )
        )
        (1): FFN(
          (fc1): Sequential(
            (0): Conv2d(256, 1024, kernel_size=(1, 1), stride=(1, 1))
            (1): BatchNorm2d(1024, eps=1e-05, momentum=0.1, affine=True, track_running_stats=True)
          )
          (act): GELU(approximate='none')
          (fc2): Sequential(
            (0): Conv2d(1024, 256, kernel_size=(1, 1), stride=(1, 1))
            (1): BatchNorm2d(256, eps=1e-05, momentum=0.1, affine=True, track_running_stats=True)
          )
          (drop_path): Identity()
        )
      )
      (7): Sequential(
        (0): LinAttentionBlock(
          (k): Linear(in_features=256, out_features=256, bias=True)
          (v): Linear(in_features=256, out_features=256, bias=True)
          (q): Linear(in_features=256, out_features=256, bias=True)
          (attention): MultiheadAttention(
            (out_proj): NonDynamicallyQuantizableLinear(in_features=256, out_features=256, bias=True)
          )
        )
        (1): FFN(
          (fc1): Sequential(
            (0): Conv2d(256, 1024, kernel_size=(1, 1), stride=(1, 1))
            (1): BatchNorm2d(1024, eps=1e-05, momentum=0.1, affine=True, track_running_stats=True)
          )
          (act): GELU(approximate='none')
          (fc2): Sequential(
            (0): Conv2d(1024, 256, kernel_size=(1, 1), stride=(1, 1))
            (1): BatchNorm2d(256, eps=1e-05, momentum=0.1, affine=True, track_running_stats=True)
          )
          (drop_path): Identity()
        )
      )
      (8): Sequential(
        (0): LinAttentionBlock(
          (k): Linear(in_features=256, out_features=256, bias=True)
          (v): Linear(in_features=256, out_features=256, bias=True)
          (q): Linear(in_features=256, out_features=256, bias=True)
          (attention): MultiheadAttention(
            (out_proj): NonDynamicallyQuantizableLinear(in_features=256, out_features=256, bias=True)
          )
        )
        (1): FFN(
          (fc1): Sequential(
            (0): Conv2d(256, 1024, kernel_size=(1, 1), stride=(1, 1))
            (1): BatchNorm2d(1024, eps=1e-05, momentum=0.1, affine=True, track_running_stats=True)
          )
          (act): GELU(approximate='none')
          (fc2): Sequential(
            (0): Conv2d(1024, 256, kernel_size=(1, 1), stride=(1, 1))
            (1): BatchNorm2d(256, eps=1e-05, momentum=0.1, affine=True, track_running_stats=True)
          )
          (drop_path): Identity()
        )
      )
      (9): Sequential(
        (0): LinAttentionBlock(
          (k): Linear(in_features=256, out_features=256, bias=True)
          (v): Linear(in_features=256, out_features=256, bias=True)
          (q): Linear(in_features=256, out_features=256, bias=True)
          (attention): MultiheadAttention(
            (out_proj): NonDynamicallyQuantizableLinear(in_features=256, out_features=256, bias=True)
          )
        )
        (1): FFN(
          (fc1): Sequential(
            (0): Conv2d(256, 1024, kernel_size=(1, 1), stride=(1, 1))
            (1): BatchNorm2d(1024, eps=1e-05, momentum=0.1, affine=True, track_running_stats=True)
          )
          (act): GELU(approximate='none')
          (fc2): Sequential(
            (0): Conv2d(1024, 256, kernel_size=(1, 1), stride=(1, 1))
            (1): BatchNorm2d(256, eps=1e-05, momentum=0.1, affine=True, track_running_stats=True)
          )
          (drop_path): Identity()
        )
      )
      (10): Sequential(
        (0): LinAttentionBlock(
          (k): Linear(in_features=256, out_features=256, bias=True)
          (v): Linear(in_features=256, out_features=256, bias=True)
          (q): Linear(in_features=256, out_features=256, bias=True)
          (attention): MultiheadAttention(
            (out_proj): NonDynamicallyQuantizableLinear(in_features=256, out_features=256, bias=True)
          )
        )
        (1): FFN(
          (fc1): Sequential(
            (0): Conv2d(256, 1024, kernel_size=(1, 1), stride=(1, 1))
            (1): BatchNorm2d(1024, eps=1e-05, momentum=0.1, affine=True, track_running_stats=True)
          )
          (act): GELU(approximate='none')
          (fc2): Sequential(
            (0): Conv2d(1024, 256, kernel_size=(1, 1), stride=(1, 1))
            (1): BatchNorm2d(256, eps=1e-05, momentum=0.1, affine=True, track_running_stats=True)
          )
          (drop_path): Identity()
        )
      )
      (11): Sequential(
        (0): LinAttentionBlock(
          (k): Linear(in_features=256, out_features=256, bias=True)
          (v): Linear(in_features=256, out_features=256, bias=True)
          (q): Linear(in_features=256, out_features=256, bias=True)
          (attention): MultiheadAttention(
            (out_proj): NonDynamicallyQuantizableLinear(in_features=256, out_features=256, bias=True)
          )
        )
        (1): FFN(
          (fc1): Sequential(
            (0): Conv2d(256, 1024, kernel_size=(1, 1), stride=(1, 1))
            (1): BatchNorm2d(1024, eps=1e-05, momentum=0.1, affine=True, track_running_stats=True)
          )
          (act): GELU(approximate='none')
          (fc2): Sequential(
            (0): Conv2d(1024, 256, kernel_size=(1, 1), stride=(1, 1))
            (1): BatchNorm2d(256, eps=1e-05, momentum=0.1, affine=True, track_running_stats=True)
          )
          (drop_path): Identity()
        )
      )
    )
  )
  (predictor): ConvPredictor(
    (predictor): Sequential(
      (0): Conv2d(256, 512, kernel_size=(1, 1), stride=(1, 1))
      (1): BatchNorm2d(512, eps=1e-05, momentum=0.1, affine=True, track_running_stats=True)
      (2): GELU(approximate='none')
      (3): Dropout(p=0.0, inplace=False)
      (4): Conv2d(512, 100, kernel_size=(1, 1), stride=(1, 1))
    )
  )
)
2023-09-12 15:59:08,756 - root - INFO - Preprocessing MMCBNU6000 dataset for train split.
100%|███████████████████████████████████████████████████████████████████████████████████████████████████████████████████████████████████████████████████████████████████████████████████████████████████████| 4800/4800 [00:00<00:00, 5574.42it/s]
2023-09-12 15:59:09,726 - root - INFO - Preprocessing MMCBNU6000 dataset for test split.
…
